digitrecognizer/app/digit_model.pt (torch, 440581 bytes, 6 tensors)

fc1.weight f4 [128, 784]
0	0x3c8541f1	0.016266795
1	0x3b5c01ec	0.0033570481
2	0x3d1cbc9a	0.038265802
3	0x3ccca1d7	0.024979515
4	0x3c887c4a	0.016660828
5	0x3c6cd358	0.014454685
6	0xbcccee49	-0.025015967
7	0xbcb92307	-0.02259971
8	0xbbe310f6	-0.006929512
9	0x3d20b498	0.039234728
10	0xbcb22b39	-0.021749126
11	0x3cd6c6d3	0.026217854
12	0x3cf7b9c5	0.030239949
13	0x3cfb4c7d	0.03067612
14	0xbc2341ae	-0.00996439
15	0x3ca28ec5	0.019843468
16	0x3d010952	0.03150303
17	0x3d1931c5	0.03740098
18	0xbc907fb7	-0.017639024
19	0x3bdd6568	0.0067564733
20	0x3be7c53a	0.007073072
21	0x3c9b2fa7	0.01894362
22	0xbc9124db	-0.01771777
23	0xbc92503f	-0.01786053
24	0x3c93c292	0.018037114
25	0x3cb7e07f	0.022445915
26	0xbaf0e626	-0.0018379136
27	0x3c67f9b3	0.014158654
28	0xbce013a3	-0.027353114
29	0x3c9d2a95	0.019185344
30	0xbccc6901	-0.024952414
31	0xbbe03dac	-0.0068432894
32	0x3cdb437d	0.02676558
33	0x3cd64c67	0.026159478
34	0x3d254fcd	0.040359307
35	0x3b9d6cfa	0.004804251
36	0x3cf85d15	0.030317822
37	0xbccf6027	-0.025314404
38	0xbc8ae677	-0.016955597
39	0xbc6d1455	-0.01447018
40	0x3c2b84d7	0.010468683
41	0xbcd5f6ab	-0.026118597
42	0x3c5f5b8f	0.013632669
43	0x3caddc6b	0.021223268
44	0xbc936147	-0.017990721
45	0x3b6cf748	0.0036158133
46	0x3b64b36c	0.0034896983
47	0xbc6e77e5	-0.014554952
48	0x3ceb68fd	0.028736586
49	0xbc9e3b77	-0.019315464
50	0x3be58fe8	0.0070056804
51	0x3beeea96	0.0072911484
52	0x3cfa100d	0.030525232
53	0x3c68959c	0.014195826
54	0x3d20fa6e	0.03930133
55	0xba1ae0d7	-0.00059081375
56	0x3987fd39	0.00025937872
57	0xbcebe65d	-0.02879637
58	0x3bb6560c	0.005564457
59	0xbb6fe778	-0.0036606472
60	0x3d13131c	0.035906896
61	0xbcdd8d79	-0.027044998
62	0xbce26dd3	-0.027640259
63	0x3b563aa2	0.0032688756
64	0x3af6b64e	0.0018822642
65	0xbc7b1242	-0.015324177
66	0x3d01e469	0.03171197
67	0x3ccf463f	0.02530205
68	0x3d09661e	0.033544652
69	0x3b789648	0.0037931371
70	0x3cb1c957	0.021702452
71	0x3c87e2d1	0.016587647
72	0x3d21b02a	0.039474644
73	0x3bef6d04	0.007306697
74	0xbbe8d39a	-0.007105303
75	0xbbfac522	-0.0076528946
76	0xbbb1c934	-0.0054255966
77	0xbce424c5	-0.027849564
78	0x3c0fbce5	0.008773063
79	0x3cded515	0.027201215
80	0x3cc2e9b7	0.023793085
81	0x3c823e4d	0.015898848
82	0xbc900a97	-0.017583175
83	0x3cc9c789	0.024631279
84	0x3ca22ccb	0.01979675
85	0x3c5c119c	0.013431933
86	0x3ce03cd7	0.02737276
87	0xbbe658bf	-0.0070296223
88	0x3cc651f5	0.024209002
89	0x3caf6805	0.021411905
90	0x3d081f23	0.03323282
91	0x3ccf2945	0.025288234
92	0x3c8fd795	0.017558852
93	0x3d0504a1	0.032475118
94	0xbc2e1818	-0.010625862
95	0x3cd43caf	0.025907842
96	0xbccbb9d9	-0.024868893
97	0xbc0f15ce	-0.008733226
98	0x3d19fb13	0.03759296
99	0xbce5f91d	-0.028072888
100	0x3d0e358e	0.034719042
101	0x3d0c24d0	0.034214795
102	0xbc908d1b	-0.01764541
103	0x3c77d0b8	0.015125446
104	0xbcdfb36f	-0.02730724
105	0xbb1e87bc	-0.002418979
106	0x3d1d3ef0	0.0383901
107	0xbc829a4f	-0.01594272
108	0xbc8cb17f	-0.01717448
109	0xbbfc0629	-0.007691164
110	0xbcf0639f	-0.029344378
111	0x3c1db4bb	0.009625609
112	0x3d1eb5b3	0.0387475
113	0x3c6eeac6	0.014582342
114	0x3cdf3b8d	0.027250076
115	0x3c95acf6	0.01827095
116	0xba426443	-0.0007415453
117	0xbc73c40a	-0.014878282
118	0x3c9258b9	0.017864572
119	0x3cba194f	0.022717146
120	0x3d25788d	0.04039817
121	0x3cf0b677	0.029383881
122	0x3c0066d8	0.00783702
123	0x3cd057c3	0.025432473
124	0xbc5418ff	-0.012945413
125	0x3c162901	0.0091650495
126	0x3ca99bb1	0.020704122
127	0x3cb8103b	0.022468677
128	0xbc16031c	-0.009156015
129	0x3d1cffb7	0.038329806
130	0xbcd017ad	-0.025401914
131	0x3d218915	0.039437372
132	0xbcc7312d	-0.024315441
133	0x3bcd6b9e	0.0062689325
134	0xbb507b1a	-0.0031811655
135	0x3ca7a78b	0.020465633
136	0xbcbb68cd	-0.022877121
137	0x3c2240a5	0.009903108
138	0xbc14dd5c	-0.009085979
139	0x3c1114a1	0.008855016
140	0xbc0b296e	-0.008493764
141	0x3b881bb3	0.0041536926
142	0xbcb4483d	-0.022007102
143	0x3c9200d7	0.017822666
144	0xbc88b467	-0.016687585
145	0xbbc783c6	-0.0060887067
146	0xbc25dd20	-0.010123521
147	0xbb3edd2c	-0.0029123528
148	0x3ca03d2d	0.01956042
149	0xbc5e5451	-0.013569907
150	0x3c6c26ef	0.014413579
151	0x3ca1d32b	0.019754013
152	0x3d0994fd	0.033589352
153	0x3ce76c75	0.028249959
154	0xbcb665bf	-0.022265313
155	0xbc6ef141	-0.014583887
156	0xbc96d9ab	-0.018414339
157	0x3d07f881	0.033195976
158	0x3c1e4745	0.009660547
159	0x3ce4bc83	0.02792192
160	0x3d182f03	0.03715421
161	0xbc627de4	-0.01382396
162	0x3af5754e	0.0018726976
163	0xbc6f970d	-0.014623416
164	0xbc281209	-0.010258206
165	0xbccdda7d	-0.025128597
166	0x3cac87bb	0.021060815
167	0xbbf29164	-0.007402586
168	0xbc88878f	-0.016666202
169	0x3c0a4ec6	0.008441633
170	0xbccb18c5	-0.024792084
171	0x3bfb3a96	0.007666896
172	0x3c4407b3	0.011964726
173	0x3ce41e1f	0.027846394
174	0x3d254401	0.040348057
175	0x3c55ded3	0.013053614
176	0xbbb60846	-0.0055551855
177	0xbcf3a193	-0.02974013
178	0x3c9cadf1	0.01912591
179	0x3c959b5b	0.018262556
180	0xbb73a303	-0.003717602
181	0x3ac5821b	0.0015068682
182	0xbd0422c7	-0.03225973
183	0x3c766e6d	0.015040976
184	0xbb958335	-0.0045627602
185	0x3cdf4ba5	0.02725775
186	0x3cf2fcf3	0.029661631
187	0x3cdcde5c	0.026961498
188	0x3cdaa090	0.02668789
189	0xb97f06a5	-0.0002432117
190	0x3ce7a769	0.02827807
191	0xbcdb62f5	-0.026780585
192	0x3d23bc75	0.03997465
193	0x3aaa42b8	0.0012989854
194	0x3ca8e597	0.02061729
195	0xbc009825	-0.007848774
196	0xbbbf3e62	-0.005836294
197	0xbcd6eab1	-0.026234956
198	0xbc92da01	-0.017926218
199	0x3d02a2bb	0.031893473
200	0x3c52c898	0.012865208
201	0x3d191431	0.03737277
202	0x3cc4ac0b	0.024007818
203	0x3bd07d7a	0.006362614
204	0xbc83274b	-0.016009947
205	0xbc92cf21	-0.017921032
206	0x3d0ec912	0.034859724
207	0xbc0fc2e8	-0.008774497
208	0xbb1ea249	-0.0024205616
209	0xba8c269e	-0.0010692661
210	0xbcbd0270	-0.023072451
211	0xbc37ba90	-0.011213914
212	0x3b33f1ca	0.002745735
213	0xbb1d9b83	-0.002404899
214	0xbcaf6dd6	-0.021414679
215	0xbb15ba27	-0.002284655
216	0x3b9d3fbc	0.0047988575
217	0x3a5ece30	0.0008499352
218	0xbca9e83f	-0.020740626
219	0x3d182ed1	0.037154023
220	0x3c1a7cca	0.009429166
221	0x3c82e1df	0.015976844
222	0xbbdc2b12	-0.0067190016
223	0xbcbb81d3	-0.022889053
224	0xbce03c89	-0.027372615
225	0x3cda8d71	0.026678773
226	0x3cf6fcb3	0.030149793
227	0x3d1c13cf	0.03810483
228	0xbcb59937	-0.022167785
229	0x3c984a09	0.01858999
230	0x3c6e6206	0.014549738
231	0x3cdf5d89	0.02726628
232	0x3c02914e	0.007969214
233	0xbb10e9f4	-0.0022112103
234	0xbc94f9f6	-0.018185597
235	0xbcc00609	-0.023440378
236	0x3c3a5fbf	0.011375367
237	0xbcec0ded	-0.028815234
238	0x3c14adbd	0.009074626
239	0xbcd16f50	-0.025565773
240	0x3cd413c6	0.025888335
241	0xbcf8c0e0	-0.030365407
242	0x3cf104a4	0.029421158
243	0x3cb082cd	0.021546746
244	0xbd125254	-0.035723045
245	0x3c382013	0.011238116
246	0x3ce95843	0.02848447
247	0xbc55a97f	-0.013040899
248	0xbc49e405	-0.0123224305
249	0xbc558f1b	-0.013034607
250	0xbc809c17	-0.01569943
251	0x3d089e57	0.03335413
252	0x3d21d269	0.039507303
253	0x3d096fef	0.033554014
254	0x3d112c42	0.0354426
255	0xbce2f383	-0.027704006

fc1.bias f4 [128]
0	0x3cc6e0e1	0.024277152
1	0x3c8169d6	0.015797537
2	0x3c9bad10	0.019003421
3	0xbc654ede	-0.013995854
4	0x3bd7e557	0.0065886187
5	0x3ceaff99	0.028686332
6	0xbb8d6aba	-0.0043157013
7	0xbbedffcb	-0.007263159
8	0xbb5693f3	-0.0032741993
9	0xbc9e11bf	-0.019295571
10	0x3bc19d62	0.005908654
11	0x3bc28484	0.0059362072
12	0xbca6c493	-0.020357406
13	0x3c74f658	0.014951311
14	0x3cdcba93	0.026944434
15	0xbd143921	-0.036187295
16	0x3becb199	0.0072233197
17	0x3c872387	0.016496433
18	0xbcb8a8e8	-0.022541478
19	0x3ca3c54e	0.019991543
20	0x3b6e71f0	0.003638383
21	0xbc7cb288	-0.015423425
22	0x3ccc0b48	0.024907723
23	0xbc1729cc	-0.009226274
24	0xbc47eeba	-0.012202913
25	0xbbfa043f	-0.0076299007
26	0xbc68824d	-0.014191222
27	0xbcdbee60	-0.026847064
28	0xbcf50ece	-0.029914286
29	0x3c41b01c	0.011821773
30	0x3c92be58	0.017913029
31	0x3c2b7d2b	0.010466854
32	0xbbd3518a	-0.006448929
33	0xbcc5a6da	-0.024127413
34	0xbcfbd0d6	-0.03073923
35	0xbd0b40cc	-0.033997342
36	0xbc651016	-0.013980886
37	0xbcbd4024	-0.023101874
38	0xbcee3b75	-0.029081086
39	0x3ce10f4f	0.02747312
40	0xbc1cf02c	-0.009578746
41	0x3d04048b	0.032230895
42	0xbb35fe7e	-0.0027770097
43	0xbd12cac7	-0.035837915
44	0x3c22baef	0.009932264
45	0xbd1324c7	-0.035923745
46	0xbc73f812	-0.014890688
47	0xbc8f54b8	-0.017496452
48	0xbcda6b9e	-0.026662644
49	0xbd00a455	-0.03140672
50	0x3c7c0ef1	0.015384422
51	0xbca9b380	-0.020715475
52	0xbd6f6c47	-0.05845287
53	0xbcc659aa	-0.024212677
54	0x3cdce6dc	0.026965551
55	0xbcfb3e13	-0.030669248
56	0xbb8cf245	-0.0043013417
57	0xbc16f5a8	-0.009213842
58	0x3ab016dd	0.0013434548
59	0xbcf6eb23	-0.030141419
60	0xbbb602d1	-0.005554535
61	0xbcbe865b	-0.023257425
62	0xbcec0b10	-0.028813869
63	0xbcea53f0	-0.028604478
64	0x3c76c818	0.0150623545
65	0x3c52952a	0.012852946
66	0xbc90e3ae	-0.017686691
67	0xbcacf4b5	-0.02111278
68	0xbcf61c71	-0.030042859
69	0xbb4d3173	-0.0031309992
70	0xbd1b695b	-0.03794227
71	0x38baf40d	8.914629e-05
72	0x3b8f645a	0.0043759765
73	0x3d1a9909	0.037743602
74	0x3c89973c	0.016795747
75	0x3d085162	0.033280738
76	0x3b0badd5	0.0021313329
77	0xbceb1ec1	-0.028701188
78	0xba86ce7c	-0.0010284926
79	0xbb34d85c	-0.002759478
80	0x3c2d6a7d	0.010584471
81	0x3b8c1c06	0.0042758016
82	0xbcd659f4	-0.02616594
83	0x3c909dd3	0.017653381
84	0x3cb02cff	0.02150583
85	0x3cab5d49	0.020918505
86	0x3d3c797f	0.046014305
87	0xbcf96fb0	-0.030448765
88	0xbcc165e0	-0.023608148
89	0x3b9db20a	0.0048124837
90	0x3be3e71d	0.006955041
91	0xbc208419	-0.00979712
92	0xbd1883e1	-0.037235145
93	0x3c4c896d	0.012483937
94	0x3cee9cd9	0.029127525
95	0x3c416937	0.01180487
96	0x3caeaf11	0.021323713
97	0x3c625cf3	0.013816106
98	0xbcaa60c5	-0.020798096
99	0xbcc91cf0	-0.024549931
100	0x3abb49d3	0.0014288969
101	0xbb17c1d1	-0.0023156295
102	0xbc903c84	-0.017606981
103	0xbc861b30	-0.016370386
104	0x3cb4e77b	0.022083035
105	0x3cab808d	0.020935321
106	0x3ced5fa6	0.028976273
107	0x3d0dcc8b	0.034618896
108	0x3cf2d508	0.029642597
109	0xbc6845e8	-0.014176823
110	0x3d2f89ea	0.042856134
111	0x3cf05c9e	0.029341038
112	0x3b16bee4	0.0023001963
113	0xbcb0957a	-0.021555651
114	0x3c1ace13	0.009448546
115	0x3cb3440d	0.021883035
116	0x3ac5a117	0.0015077916
117	0xbc8e15e4	-0.017344423
118	0x3cc0ed39	0.023550617
119	0x3cc4d3e9	0.024026828
120	0xbc3a2f25	-0.011363779
121	0x3c3e44e5	0.011613105
122	0xbd033f78	-0.03204295
123	0x3cdd50b2	0.027016018
124	0xbb0564d7	-0.0020354295
125	0xbce92015	-0.02845768
126	0x3c396d6c	0.011317592
127	0xbc9b75bd	-0.01897704

fc2.weight f4 [64, 128]
0	0xbd3fa13b	-0.04678462
1	0x3cdc4927	0.02689035
2	0x3df4459d	0.1192734
3	0xbda1be5f	-0.078976385
4	0xbceb8ed8	-0.028754637
5	0x3d67afbf	0.05656409
6	0x3d2fd4f6	0.042927705
7	0xbbb50fc3	-0.0055255606
8	0x3d857aef	0.06517588
9	0x3d1f112f	0.038834747
10	0x3da52bbe	0.08064984
11	0xbd63d801	-0.05562592
12	0xba9924e3	-0.0011683967
13	0xbd9113ca	-0.070838526
14	0x3e229477	0.15876947
15	0xbda98c06	-0.082786605
16	0xbccb54e7	-0.024820758
17	0x3a4de0eb	0.0007853645
18	0xbc8996ac	-0.016795479
19	0x3cadc70f	0.021213083
20	0xbd98abdd	-0.07454655
21	0xbe1b3343	-0.15156274
22	0x3d1b6fe9	0.037948523
23	0xbd97a696	-0.074048206
24	0x3d01b667	0.031668093
25	0x3c8f2768	0.017474845
26	0x3dcd6e39	0.10030789
27	0x3d0a416d	0.0337538
28	0xbd6fc82a	-0.0585405
29	0x3d812bc2	0.06307174
30	0xbc935504	-0.017984875
31	0x3dc68365	0.0969303
32	0xbd7c342f	-0.061573204
33	0xbdb56a90	-0.08858216
34	0xbcd97065	-0.026542852
35	0xbd801841	-0.06254626
36	0xbc978ac6	-0.01849879
37	0xbd3b669b	-0.04575215
38	0x3dd832cc	0.10556564
39	0xbd08d3a3	-0.033404958
40	0x3dc56b3a	0.096395925
41	0x3e5c4254	0.21509677
42	0x3d77d64c	0.060507104
43	0xbd795809	-0.060874972
44	0xbdd42517	-0.10358637
45	0x3debda6f	0.11516272
46	0x3dab677b	0.08369347
47	0x3d11d8e8	0.03560725
48	0x3e08d083	0.13360791
49	0x3dd75b94	0.10515514
50	0xbc56456a	-0.013078073
51	0xbbd6216b	-0.0065347455
52	0xbe0a4d29	-0.13505997
53	0xbcff9edc	-0.03120368
54	0xbd86881c	-0.065689296
55	0x3d8d343f	0.06894731
56	0xbca4fa1a	-0.020138789
57	0xbe209604	-0.15682226
58	0xbd0fbb10	-0.035090506
59	0x3c3244ce	0.010880662
60	0x3daba1be	0.08380459
61	0x3da27f07	0.07934385
62	0x3d608d28	0.054822117
63	0x3e174219	0.14771308
64	0x3b226c0d	0.0024783642
65	0xbce5cea4	-0.028052635
66	0xbd2d227e	-0.042269222
67	0xbba33e66	-0.0049818037
68	0x3d05dab3	0.03267927
69	0xbe7b38c6	-0.24533376
70	0x3d0a270b	0.03372864
71	0xbd991aac	-0.074757904
72	0x3d9946c0	0.074841976
73	0x3d7c9e54	0.06167443
74	0x3d779567	0.060445216
75	0x3db63a60	0.08897853
76	0x3db26cd2	0.08712162
77	0x3deeac9b	0.11654016
78	0xbd24630c	-0.04013352
79	0xbda23c19	-0.07921619
80	0x3d9a28f1	0.0752734
81	0x3cf9fde0	0.030516565
82	0x3b902394	0.0043987725
83	0x3dd98687	0.10621362
84	0x3ba812b5	0.005129183
85	0x3d2ae8f5	0.04172607
86	0x3d9b4984	0.07582381
87	0xbd11d65e	-0.035604827
88	0xbdf1eb9b	-0.11812516
89	0xbd611f2a	-0.05496136
90	0xbdcc14af	-0.099648826
91	0xbc4a709e	-0.012355952
92	0x3c96863d	0.018374557
93	0x3c433a4f	0.011915757
94	0x3d6512df	0.0559262
95	0x3d8706fa	0.065931275
96	0xbd86eafe	-0.0658779
97	0x3de157f1	0.110031016
98	0x3e3d37e6	0.18478355
99	0x3c7cf864	0.01544008
100	0x3d1fd03e	0.039016955
101	0xbd27a1db	-0.04092584
102	0xbda1d302	-0.07901575
103	0xbd981d26	-0.074274346
104	0xbe3caa84	-0.18424422
105	0x3d2db9b7	0.04241344
106	0x3d890166	0.0668972
107	0x3dafc611	0.085827
108	0xbd6f73d3	-0.058460068
109	0xbcdaf764	-0.026729293
110	0x3e09eb48	0.13468659
111	0x3d9991a0	0.07498479
112	0xbd46b288	-0.048510104
113	0xbd840d09	-0.06447799
114	0xbd9a8cae	-0.07546364
115	0xbdfeba21	-0.12437845
116	0x3e790c30	0.24321055
117	0x3df9b9d3	0.12193646
118	0x3cc0ddb0	0.023543209
119	0xbcc41171	-0.023934098
120	0xbd40aaea	-0.047037996
121	0x3d7b05b7	0.061284747
122	0xbe1553fd	-0.1458282
123	0x3d116079	0.035492394
124	0x3cf43dbc	0.029814593
125	0x3d6790e8	0.056534678
126	0x3cc65175	0.024208764
127	0x3dcfa3f3	0.10138693
128	0xbdb4abe3	-0.08821847
129	0x3c9a9a01	0.018872263
130	0x3c83c04c	0.016082905
131	0x3e2a81ca	0.16651073
132	0xbaee30f8	-0.0018172553
133	0xbcc02878	-0.023456797
134	0x3cb06bbf	0.021535752
135	0xbd992b9e	-0.074790224
136	0x3cb8fa2b	0.022580227
137	0x3a67691d	0.0008827614
138	0xbd9654f6	-0.07340424
139	0x3d8a6bba	0.067588285
140	0x3e291ee2	0.16515687
141	0x3d8003bb	0.062507115
142	0x3dc0e61c	0.0941889
143	0x3b46e4ca	0.0030348771
144	0x3d2580b8	0.04040596
145	0xbe060491	-0.1308768
146	0xbd8941a8	-0.06701976
147	0xbe43eec8	-0.19134057
148	0xbd91a91e	-0.07112335
149	0x3dd387c2	0.10328628
150	0xbce8792d	-0.028378094
151	0xbd9babe6	-0.076011464
152	0x3c462db8	0.012095861
153	0xbd70f7d1	-0.058830086
154	0x3d9c4310	0.07629979
155	0xbd1490ed	-0.036271024
156	0xbd117f64	-0.03552188
157	0xbe20acac	-0.15690869
158	0x3d257df0	0.040403306
159	0xbda3ac4d	-0.07991848
160	0xbd273bd0	-0.040828526
161	0xbd07a87d	-0.033119667
162	0x3c0e3af6	0.00868105
163	0x3d074ed9	0.03303418
164	0x3c3e21fd	0.011604783
165	0x3c88ed89	0.016714828
166	0xbd0e83ce	-0.034793667
167	0xbca4ddf2	-0.020125363
168	0x3db475e9	0.08811552
169	0xbe90ea25	-0.28303638
170	0x3d225a4a	0.039636888
171	0xbd08b05d	-0.033371318
172	0x3da8cb7f	0.08241939
173	0xbd969ff3	-0.07354727
174	0xbe06232b	-0.13099353
175	0xbda7dfd0	-0.08196986
176	0xbe3a0b88	-0.18168461
177	0x3d3f4f1f	0.046706315
178	0x3d15dd1c	0.03658782
179	0xbcc49d5d	-0.024000818
180	0x3cf5ab3b	0.029988876
181	0xbda08819	-0.078384586
182	0x3db8fa00	0.09032059
183	0x3df3ad0a	0.11898239
184	0x3d63fe41	0.055662397
185	0x3e1e2b52	0.15446213
186	0xbda7f46f	-0.08200919
187	0xbd2d65b3	-0.042333316
188	0x3c01f915	0.007932921
189	0xbd136c16	-0.03599175
190	0x3d2a3e31	0.041563217
191	0xbdda11af	-0.10647904
192	0x3e4bc44c	0.198991
193	0xbc8bdf09	-0.017074125
194	0x3d9b2107	0.07574659
195	0x3de321e1	0.11090446
196	0x3e4b44bc	0.19850439
197	0xbd39c295	-0.045351584
198	0x3de6c728	0.11268455
199	0xbdc7b670	-0.09751594
200	0x3c553e39	0.013015323
201	0xbcd35c1c	-0.025800757
202	0x3d9fcad6	0.0780236
203	0x3dc7e73c	0.09760901
204	0x3c169f27	0.009193218
205	0x3d2335e6	0.039846323
206	0xbd887650	-0.06663191
207	0xbbad5f43	-0.005290897
208	0xbc31472c	-0.010820191
209	0x3c0c5a23	0.008566412
210	0x3c1b24c0	0.009469211
211	0x3cefc0c8	0.02926673
212	0xbd544f8c	-0.051833674
213	0xbe204db3	-0.1565464
214	0x3dacc8af	0.08436715
215	0xbc47d7f0	-0.01219748
216	0x3dba8dd7	0.09109085
217	0x3d6d8f6a	0.0579981
218	0xbe661c6b	-0.22471778
219	0xbd2d25da	-0.042272426
220	0x3e31693f	0.17325304
221	0xbd32a54a	-0.043614663
222	0x3dbf9326	0.09354238
223	0x3c38df1d	0.011283663
224	0xbd92b2b6	-0.07162993
225	0xbe5ff65c	-0.21871322
226	0x3d7038a7	0.058647778
227	0xbda961f8	-0.08270639
228	0x3c78058c	0.015138041
229	0x3d2c0a69	0.042002115
230	0xbd0f7164	-0.035020247
231	0x3d04c809	0.03241733
232	0xbd433972	-0.047662206
233	0x3e61ec27	0.22062741
234	0x3d4b1145	0.049577016
235	0x3c899871	0.016796323
236	0xbd1172d7	-0.03550991
237	0x3ddebc8f	0.108758084
238	0xbe83f700	-0.25774384
239	0xbea3e2f4	-0.3200909
240	0xbccf6d5f	-0.025320707
241	0xbd8f4dd4	-0.069972664
242	0xbd36ddee	-0.044645242
243	0x3d3a3a92	0.045466013
244	0xbec79f58	-0.38988757
245	0x3d8c8cd6	0.068628
246	0xbd398323	-0.045291077
247	0xbd2a66aa	-0.041601814
248	0x3c8362d8	0.016038343
249	0xbca38e24	-0.019965239
250	0x3d9dc9b7	0.0770449
251	0xbd93e642	-0.072216526
252	0xbd0b54a2	-0.03401626
253	0xbd8a96f9	-0.06767077
254	0x3a827c0d	0.0009955183
255	0xbdd9cf00	-0.10635185

fc2.bias f4 [64]
0	0x3db1fc98	0.086907566
1	0x3d963f53	0.07336297
2	0x3db5b52d	0.08872447
3	0x3d3d7965	0.04625835
4	0x3d61a4bf	0.055088755
5	0xbd377e5e	-0.044798248
6	0x3bd76cce	0.00657425
7	0x3cbb8bc1	0.022893788
8	0xbd286962	-0.041116126
9	0xbc98eb7c	-0.018666975
10	0x3dfae409	0.122505255
11	0xbdaff960	-0.085924864
12	0x3d0dd6e9	0.034628782
13	0x3dfcb1d5	0.12338606
14	0x3bee38d5	0.0072699585
15	0xbd94ffa9	-0.07275326
16	0xbd8abc4b	-0.06774195
17	0x3caa4726	0.02078588
18	0xbdd241d6	-0.102664635
19	0xbc66963a	-0.014073903
20	0x3d27b91f	0.04094803
21	0xbd89ab6b	-0.067221485
22	0xbd2a845b	-0.04163013
23	0x3d060761	0.03272188
24	0xbd1fe947	-0.03904083
25	0x3d632c42	0.05546213
26	0xbda41aed	-0.08012948
27	0xbded8cc9	-0.11599118
28	0x3d164ffe	0.03669738
29	0x3d2059dc	0.039148197
30	0x3d3672f8	0.044543236
31	0x3e0651a4	0.13117081
32	0x3ce341b2	0.027741287
33	0x3b14103f	0.0022592691
34	0x3df8362c	0.121197075
35	0xbd31300f	-0.043258723
36	0x3da69f05	0.08135799
37	0xbd614ef5	-0.05500694
38	0xbdece9ff	-0.11568069
39	0xbcfb5ffc	-0.030685417
40	0x3d271958	0.040795654
41	0x3d9097a5	0.07060174
42	0xbdc56ae8	-0.096395314
43	0x3dccf33b	0.1000733
44	0x3d82ba22	0.06383158
45	0xbcbf6c68	-0.023367122
46	0xbd82ea7c	-0.063923806
47	0xbcc3db81	-0.023908379
48	0xbd7a93a6	-0.061175965
49	0x3cca387c	0.024685137
50	0xbc84973c	-0.016185395
51	0x3dadedc9	0.084926195
52	0x3c91fccb	0.017820736
53	0xbdc78a8e	-0.09743224
54	0xbd9cd1e4	-0.07657221
55	0x3d1c84d4	0.038212612
56	0x3d000d08	0.031262428
57	0x3daa4435	0.08313791
58	0x3bd3a28c	0.006458586
59	0x3d8f81e3	0.07007196
60	0xbc97cd7d	-0.018530602
61	0x3c28f043	0.010311189
62	0xbc25d809	-0.010122308
63	0x3cad2346	0.021134984

fc3.weight f4 [10, 64]
0	0xbd964a59	-0.073383994
1	0xbe0486bc	-0.12942022
2	0xbeaa6228	-0.33278012
3	0x3e5f8e78	0.21831691
4	0x3afedf74	0.0019445256
5	0xbdc67f05	-0.09692196
6	0xbdd8c3d4	-0.10584226
7	0xb906ece0	-0.00012867479
8	0x3be2eff3	0.006925577
9	0xbe282245	-0.16419323
10	0x3e277d60	0.1635642
11	0x3e5de783	0.21670346
12	0x3de153b3	0.110022925
13	0x3e115705	0.14193352
14	0xbb353198	-0.0027647968
15	0xbd420d41	-0.04737592
16	0x3dc8cfc0	0.0980525
17	0x3cb23275	0.021752575
18	0xbdb7149c	-0.08939478
19	0x39dea7ba	0.00042468106
20	0xbd071f85	-0.032989044
21	0xbe1de2a5	-0.1541849
22	0xbd9cebff	-0.076622
23	0xbe0fafd2	-0.14031914
24	0x3ddb7bdb	0.10716983
25	0xbea46329	-0.32106903
26	0xbd8eb06f	-0.06967246
27	0xbe417ff1	-0.18896462
28	0xbe02ce9d	-0.12774129
29	0x3e044797	0.12917934
30	0xbd905663	-0.07047727
31	0xbe15aa7e	-0.14615819
32	0x3d163fb3	0.036681842
33	0x3dd4d86a	0.1039284
34	0xbd320bb9	-0.04346821
35	0x3d78af56	0.06071409
36	0x3c2ee136	0.010673812
37	0xbec80ced	-0.39072362
38	0x3d330b88	0.04371217
39	0x3df2a152	0.11847176
40	0xbce02c4d	-0.027364874
41	0xbdac5526	-0.08414678
42	0xbe67770d	-0.22604008
43	0xbdc859ca	-0.09782751
44	0xbbe787a1	-0.007065729
45	0x3d6328d1	0.055458847
46	0x3da7e8dc	0.08198711
47	0x3da459de	0.08024953
48	0x3c85b6e1	0.016322555
49	0x3beb2096	0.0071755154
50	0x3c9bf5d7	0.019038124
51	0x3db21d67	0.08697014
52	0xbc93b565	-0.018030832
53	0x3e66222d	0.22473975
54	0xbe70cfe0	-0.23516798
55	0xbec73e50	-0.38914728
56	0xbe21d4d2	-0.15803841
57	0xbe0dfe88	-0.13866627
58	0xbde6d718	-0.112714946
59	0x3d87df73	0.066344164
60	0xbdb90c68	-0.090355694
61	0x3e281d1e	0.16417357
62	0x3e66fda6	0.22557697
63	0xbebe52d6	-0.37172574
64	0xbe173eba	-0.14770022
65	0xbe590ac6	-0.21195516
66	0x3e027a79	0.12742032
67	0xbe06f73c	-0.1318025
68	0x3a96b244	0.0011497219
69	0xbe0f7f43	-0.1401339
70	0x3e1c33fb	0.15254204
71	0xbe627dae	-0.22118255
72	0xbe93c25e	-0.28859228
73	0x3cddd7e5	0.027080486
74	0xbeb26869	-0.34845284
75	0xbe3e3bee	-0.18577549
76	0xbdcd712c	-0.100313514
77	0xbe246159	-0.1605276
78	0xbe3ba609	-0.18325056
79	0x3ce08a57	0.027409716
80	0x3dcca024	0.09991482
81	0xbe75b9a3	-0.23996596
82	0xbe0a28bc	-0.13492101
83	0xbe59774a	-0.21236911
84	0xbe1a6465	-0.1507736
85	0x3e1bdd76	0.152212
86	0x3e11deda	0.14245167
87	0x3d625f39	0.055266593
88	0x3e24c965	0.16092451
89	0xbdb254ae	-0.087075576
90	0xbc2282d4	-0.009918887
91	0x3d35aa38	0.044351786
92	0xbdcba9bb	-0.09944483
93	0x3dc3567b	0.09537979
94	0x3e0490c5	0.1294585
95	0x3cab111c	0.020882182
96	0xbe0f82a9	-0.14014687
97	0x3e1bf16f	0.15228818
98	0xbe7ed4be	-0.24885842
99	0x3d60a430	0.05484408
100	0x3d229bc9	0.03969935
101	0xbe623a11	-0.22092463
102	0x3ca6edb9	0.020377027
103	0x3e834ce9	0.25644615
104	0xbd42c857	-0.04755434
105	0x3e1fddde	0.1561198
106	0xbe97fe2c	-0.29686105
107	0x3dc1a99a	0.09456177
108	0x3e77d96a	0.2420403
109	0x3dd8f07d	0.105927445
110	0xbd8d909a	-0.06912346
111	0xbe0e3c9a	-0.13890305
112	0x3dd17072	0.10226525
113	0xbe658b69	-0.22416462
114	0xbd3ace16	-0.045606695
115	0x3cc7d649	0.024394171
116	0x3e069a1d	0.13144727
117	0xbeba02e0	-0.36330318
118	0x3d9e96d4	0.07743612
119	0x3d7eb284	0.062181965
120	0x3d8e4b15	0.069479145
121	0x3db29b6f	0.08721053
122	0xbe0c2b22	-0.13688329
123	0xbe4cb8b5	-0.19992335
124	0x3d81c9df	0.06337332
125	0x3daf82d7	0.085698776
126	0x3c848c43	0.016180163
127	0xbd054e52	-0.032545395
128	0x3df33a96	0.11876409
129	0xbd2a794d	-0.041619588
130	0xbd3499ba	-0.044091918
131	0xbe35271d	-0.17690702
132	0xbdb5c766	-0.08875923
133	0xbdec8b79	-0.1155004
134	0x3e305fbb	0.17224018
135	0xbe73fec5	-0.23827656
136	0xbe844f59	-0.25841787
137	0x3b1f5196	0.0024310104
138	0xbe0d19b7	-0.1377934
139	0xbe0d470a	-0.1379663
140	0xbe2405ee	-0.16017887
141	0x3d795e10	0.06088072
142	0xbd7e1f0f	-0.06204134
143	0x3dc2b9f5	0.09508125
144	0xbe5b9cc2	-0.21446517
145	0x3dfdfaef	0.124013774
146	0xbd8e6fa8	-0.069548905
147	0x3e597bf5	0.21238692
148	0xbdbc8f1e	-0.09206985
149	0x3e03c8cd	0.12869568
150	0xbd11cc76	-0.03559538
151	0x3d023f1d	0.03179847
152	0x3de0072c	0.10938868
153	0xbe5a0b01	-0.2129326
154	0xbd81e85f	-0.063431494
155	0x3d87bd25	0.06627873
156	0x3c073657	0.008252702
157	0x3d92812c	0.07153544
158	0x3e38a0f0	0.18030143
159	0xbd2f2871	-0.042763177
160	0x3d6a7a75	0.05724569
161	0x3e0cf4ba	0.13765231
162	0xbe3120d2	-0.17297676
163	0x3d898920	0.06715608
164	0xbdff5f72	-0.124693766
165	0xbe6a17e5	-0.22860678
166	0x3e316087	0.17321979
167	0xbefc9db1	-0.4933906
168	0x3d5c8632	0.053838916
169	0x3e1f2d6a	0.15544668
170	0x3dca358b	0.09873494
171	0xbe4905a7	-0.19631062
172	0xbe9aeb23	-0.3025752
173	0x3d1e2dc5	0.038617868
174	0xbd0f0694	-0.034918383
175	0x3ca38847	0.019962443
176	0x3e2a4671	0.16628434
177	0xbdb02722	-0.08601214
178	0x3d20bb4a	0.039241113
179	0xbd6542c4	-0.055971876
180	0xbe63a6e7	-0.22231637
181	0xbe8d2ccc	-0.2757324
182	0x3e02bfc7	0.1276847
183	0xbe24d156	-0.1609548
184	0x3dd89a38	0.1057629
185	0xbe67b734	-0.2262848
186	0xbd063f4a	-0.0327752
187	0x3d5a7238	0.053331584
188	0xbd0c2260	-0.03421247
189	0x3e431782	0.19051936
190	0x3dddb85a	0.10826178
191	0x3e315ba7	0.17320119
192	0x3e06411a	0.13110772
193	0x3d8f70f1	0.07003964
194	0xbe31fcb3	-0.17381553
195	0xbcb5a694	-0.022174157
196	0xbd1a38d3	-0.037651848
197	0x3e74188b	0.23837487
198	0xbd74e257	-0.059786167
199	0xbdd1555a	-0.10221358
200	0xbe10514c	-0.14093512
201	0xbc5c6771	-0.013452397
202	0x3d26d7e8	0.040733248
203	0xbc9dc5a0	-0.019259274
204	0xbe225c5b	-0.15855543
205	0xbb880840	-0.004151374
206	0x3d0d51ed	0.03450196
207	0x3ddc407d	0.10754488
208	0x3d9862e8	0.0744074
209	0x3dafd825	0.08586148
210	0xbd24e127	-0.040253785
211	0xbe37f374	-0.17963964
212	0x3e8c1ab3	0.2736412
213	0xbd0180cf	-0.031616982
214	0x3d02acbf	0.031903025
215	0xbe380637	-0.17971121
216	0x3d153b6a	0.036433615
217	0xbe473c99	-0.1945671
218	0x3ca0ee08	0.019644752
219	0x3ddd9704	0.108198196
220	0xbe76a842	-0.24087623
221	0xbe08d3bc	-0.1336202
222	0xbe28d7bb	-0.16488545
223	0x3e1ef79e	0.15524146
224	0xbb8c258c	-0.004276937
225	0x3dc00e6e	0.09377752
226	0xbe844c54	-0.25839484
227	0x3e145107	0.14484034
228	0x3ce415fa	0.02784251
229	0x3df1ae75	0.11800853
230	0x3dbfec14	0.093712
231	0xbe4b8633	-0.19875412
232	0xbcdd27bb	-0.026996484
233	0xbe00080c	-0.1250307
234	0xba1db03c	-0.00060153357
235	0x3e43aba9	0.19108452
236	0xbe543eaf	-0.20727037
237	0xbdb2b8fb	-0.087266885
238	0xbdc1ed53	-0.09469094
239	0x3de85e23	0.1134608
240	0xbd7d4607	-0.06183436
241	0xbe4a685a	-0.1976637
242	0x3d40dd38	0.04708597
243	0x3c83c703	0.016086107
244	0x39c5fa9e	0.00037761492
245	0xbe091982	-0.13388637
246	0xbd6f1d4e	-0.058377557
247	0x3cec60bd	0.028854722
248	0xbdd87603	-0.10569384
249	0xbc5ef4f3	-0.013608205
250	0xbcb5fde9	-0.0222158
251	0xbe3d6324	-0.1849485
252	0x3e9321b5	0.28736654
253	0x3e2b276b	0.16714256
254	0xbed27dad	-0.41111508
255	0x3e1859f8	0.1487807

fc3.bias f4 [10]
0	0xbdcf1baa	-0.101126984
1	0xbdec2a9a	-0.11531563
2	0xbdfcdc16	-0.123466656
3	0xbd98bf3b	-0.07458349
4	0x3d259ffd	0.04043578
5	0xbdadce1b	-0.08486577
6	0x3d9f5352	0.07779564
7	0x3d421548	0.047383577
8	0x3da97818	0.08274859
9	0x3da2157f	0.07914256
